
ResnetConditionHRVeryLite(
  (model_enc1): Sequential(
    (0): ReflectionPad2d((1, 1, 1, 1))
    (1): Conv2d(3, 8, kernel_size=(3, 3), stride=(1, 1))
    (2): BatchNorm2d(8, eps=1e-05, momentum=0.1, affine=True, track_running_stats=True)
    (3): ReLU(inplace=True)
    (4): Conv2d(8, 16, kernel_size=(3, 3), stride=(2, 2), padding=(1, 1))
    (5): BatchNorm2d(16, eps=1e-05, momentum=0.1, affine=True, track_running_stats=True)
    (6): ReLU(inplace=True)
  )
  (model_enc2): Sequential(
    (0): ReflectionPad2d((1, 1, 1, 1))
    (1): Conv2d(3, 8, kernel_size=(3, 3), stride=(1, 1))
    (2): BatchNorm2d(8, eps=1e-05, momentum=0.1, affine=True, track_running_stats=True)
    (3): ReLU(inplace=True)
    (4): Conv2d(8, 16, kernel_size=(3, 3), stride=(2, 2), padding=(1, 1))
    (5): BatchNorm2d(16, eps=1e-05, momentum=0.1, affine=True, track_running_stats=True)
    (6): ReLU(inplace=True)
  )
  (model_enc_back): Sequential(
    (0): ReflectionPad2d((1, 1, 1, 1))
    (1): Conv2d(3, 8, kernel_size=(3, 3), stride=(1, 1))
    (2): BatchNorm2d(8, eps=1e-05, momentum=0.1, affine=True, track_running_stats=True)
    (3): ReLU(inplace=True)
    (4): Conv2d(8, 16, kernel_size=(3, 3), stride=(2, 2), padding=(1, 1))
    (5): BatchNorm2d(16, eps=1e-05, momentum=0.1, affine=True, track_running_stats=True)
    (6): ReLU(inplace=True)
  )
  (model_enc_seg): Sequential(
    (0): ReflectionPad2d((1, 1, 1, 1))
    (1): Conv2d(1, 8, kernel_size=(3, 3), stride=(1, 1))
    (2): BatchNorm2d(8, eps=1e-05, momentum=0.1, affine=True, track_running_stats=True)
    (3): ReLU(inplace=True)
    (4): Conv2d(8, 16, kernel_size=(3, 3), stride=(2, 2), padding=(1, 1))
    (5): BatchNorm2d(16, eps=1e-05, momentum=0.1, affine=True, track_running_stats=True)
    (6): ReLU(inplace=True)
  )
  (comb_back): Sequential(
    (0): Conv2d(32, 8, kernel_size=(1, 1), stride=(1, 1), bias=False)
    (1): BatchNorm2d(8, eps=1e-05, momentum=0.1, affine=True, track_running_stats=True)
    (2): ReLU(inplace=True)
  )
  (comb_seg): Sequential(
    (0): Conv2d(32, 8, kernel_size=(1, 1), stride=(1, 1), bias=False)
    (1): BatchNorm2d(8, eps=1e-05, momentum=0.1, affine=True, track_running_stats=True)
    (2): ReLU(inplace=True)
  )
  (model_res_dec): Sequential(
    (0): Conv2d(32, 16, kernel_size=(1, 1), stride=(1, 1), bias=False)
    (1): BatchNorm2d(16, eps=1e-05, momentum=0.1, affine=True, track_running_stats=True)
    (2): ReLU(inplace=True)
    (3): ResnetBlock(
      (conv_block): Sequential(
        (0): ReflectionPad2d((1, 1, 1, 1))
        (1): Conv2d(16, 16, kernel_size=(3, 3), stride=(1, 1))
        (2): BatchNorm2d(16, eps=1e-05, momentum=0.1, affine=True, track_running_stats=True)
        (3): ReLU(inplace=True)
        (4): ReflectionPad2d((1, 1, 1, 1))
        (5): Conv2d(16, 16, kernel_size=(3, 3), stride=(1, 1))
        (6): BatchNorm2d(16, eps=1e-05, momentum=0.1, affine=True, track_running_stats=True)
      )
    )
  )
  (model_res_dec_al): Sequential(
    (0): ResnetBlock(
      (conv_block): Sequential(
        (0): ReflectionPad2d((1, 1, 1, 1))
        (1): Conv2d(16, 16, kernel_size=(3, 3), stride=(1, 1))
        (2): BatchNorm2d(16, eps=1e-05, momentum=0.1, affine=True, track_running_stats=True)
        (3): ReLU(inplace=True)
        (4): ReflectionPad2d((1, 1, 1, 1))
        (5): Conv2d(16, 16, kernel_size=(3, 3), stride=(1, 1))
        (6): BatchNorm2d(16, eps=1e-05, momentum=0.1, affine=True, track_running_stats=True)
      )
    )
  )
  (model_res_dec_fg): Sequential(
    (0): ResnetBlock(
      (conv_block): Sequential(
        (0): ReflectionPad2d((1, 1, 1, 1))
        (1): Conv2d(16, 16, kernel_size=(3, 3), stride=(1, 1))
        (2): BatchNorm2d(16, eps=1e-05, momentum=0.1, affine=True, track_running_stats=True)
        (3): ReLU(inplace=True)
        (4): ReflectionPad2d((1, 1, 1, 1))
        (5): Conv2d(16, 16, kernel_size=(3, 3), stride=(1, 1))
        (6): BatchNorm2d(16, eps=1e-05, momentum=0.1, affine=True, track_running_stats=True)
      )
    )
  )
  (model_al_out): Sequential(
    (0): Upsample(scale_factor=2.0, mode=bilinear)
    (1): Conv2d(16, 8, kernel_size=(3, 3), stride=(1, 1), padding=(1, 1))
    (2): BatchNorm2d(8, eps=1e-05, momentum=0.1, affine=True, track_running_stats=True)
    (3): ReLU(inplace=True)
    (4): ReflectionPad2d((1, 1, 1, 1))
    (5): Conv2d(8, 1, kernel_size=(3, 3), stride=(1, 1))
    (6): Tanh()
  )
  (model_dec_fg1): Sequential(
    (0): Upsample(scale_factor=2.0, mode=bilinear)
    (1): Conv2d(16, 8, kernel_size=(3, 3), stride=(1, 1), padding=(1, 1))
    (2): BatchNorm2d(8, eps=1e-05, momentum=0.1, affine=True, track_running_stats=True)
    (3): ReLU(inplace=True)
    (4): ReflectionPad2d((1, 1, 1, 1))
    (5): Conv2d(8, 3, kernel_size=(3, 3), stride=(1, 1))
  )
  (model_fg_out): Sequential(
    (0): Upsample(scale_factor=2.0, mode=bilinear)
    (1): Conv2d(16, 8, kernel_size=(3, 3), stride=(1, 1), padding=(1, 1))
    (2): BatchNorm2d(8, eps=1e-05, momentum=0.1, affine=True, track_running_stats=True)
    (3): ReLU(inplace=True)
    (4): ReflectionPad2d((1, 1, 1, 1))
    (5): Conv2d(8, 3, kernel_size=(3, 3), stride=(1, 1))
  )
)



<class 'collections.OrderedDict'>
name: module.model_enc1.1.weight                                  	 size:torch.Size([8, 3, 3, 3])
name: module.model_enc1.1.bias                                    	 size:torch.Size([8])
name: module.model_enc1.2.weight                                  	 size:torch.Size([8])
name: module.model_enc1.2.bias                                    	 size:torch.Size([8])
…
